weights/text/model_2.pth (torch, 694287 bytes, 8 tensors)

conv1.weight f4 [128, 1, 3, 300]
0	0x3c987baf	0.018613664
1	0xbc82fa6f	-0.015988557
2	0x3cc78108	0.02435352
3	0xbd5c5856	-0.05379518
4	0x3affa435	0.0019503894
5	0x3d0904bc	0.03345178
6	0xbc71ab10	-0.014750257
7	0x3caa653b	0.020800224
8	0xbc2b7456	-0.010464748
9	0xbcad1bfe	-0.021131512
10	0x3c40e2cb	0.011772822
11	0x3d06d3a7	0.03291669
12	0xbc6e2567	-0.014535285
13	0x3b9f0d14	0.004853854
14	0x3d302cb2	0.043011375
15	0x3c122eec	0.00892232
16	0xbd111fd5	-0.035430748
17	0x3a981324	0.0011602384
18	0x3d77a885	0.060463447
19	0x3d00d5e6	0.03145399
20	0x3d080aa4	0.033213273
21	0xbc717abd	-0.014738736
22	0x3d4305bf	0.0476129
23	0xbc3eab45	-0.0116375135
24	0x3d323584	0.043508068
25	0x3c2f6772	0.010705816
26	0x3cb28108	0.021790043
27	0xbbcb440a	-0.0062031792
28	0x3d334c1e	0.043773763
29	0x3ca072b7	0.01958595
30	0xbd996136	-0.07489245
31	0x3d8892f4	0.06668654
32	0xbb31a0e2	-0.002710395
33	0xbb7d4e65	-0.0038651463
34	0x3bd1952b	0.006395956
35	0xbc000004	-0.007812504
36	0xbb02b166	-0.0019942163
37	0xbdab719d	-0.083712794
38	0x3ce9e38e	0.02855089
39	0x3b50f3db	0.003188363
40	0xbcf6ea1a	-0.030140925
41	0x3d51c93a	0.051217295
42	0xbcbfb44f	-0.023401408
43	0xbd428b6b	-0.04749624
44	0xbcf16112	-0.029465232
45	0xbd84c175	-0.064822115
46	0x3d2f658a	0.042821445
47	0xbdc72e83	-0.09725668
48	0xbd22f666	-0.039785765
49	0xbca481b0	-0.020081371
50	0x3d2cee88	0.04221967
51	0xbd4c563d	-0.04988693
52	0x3d652728	0.055945545
53	0x3d482443	0.048862707
54	0xbcc114d2	-0.023569498
55	0x3da41355	0.080115
56	0xbceadce7	-0.028669788
57	0x3ba1a9d9	0.0049335775
58	0xbd891b7b	-0.066946946
59	0x3c6433d8	0.013928376
60	0x3bb65500	0.005564332
61	0x3ccc28f1	0.024921866
62	0xbca91700	-0.02064085
63	0xbcebe5bb	-0.028796067
64	0x3d33b498	0.0438734
65	0x3cd93242	0.026513223
66	0x3d99d09c	0.07510492
67	0xbd71a053	-0.058990788
68	0x3c3847c6	0.011247581
69	0xbd2f49ed	-0.04279511
70	0x3c859df7	0.016310675
71	0x3cadb65b	0.021205118
72	0xbc86014b	-0.016358038
73	0xbd8c8597	-0.06861418
74	0x3b91decc	0.0044516083
75	0x3cde0eef	0.02710673
76	0x3c7c6d6f	0.01540695
77	0xbd055cb2	-0.032559104
78	0xbb10c1a0	-0.0022088066
79	0x3da257ea	0.079269245
80	0xbd25271b	-0.040320497
81	0x3c6c94ae	0.014439745
82	0x3cc6b19f	0.024254618
83	0xbc93c603	-0.018038755
84	0x3b84e780	0.0040559173
85	0xbc6eb2c2	-0.014568986
86	0xbc831be7	-0.016004516
87	0x3c589fa1	0.013221652
88	0xbc735c80	-0.014853597
89	0xbcdbc7ce	-0.026828673
90	0xbce8dd5c	-0.028425865
91	0x3c7d723a	0.015469128
92	0x3d0d18d6	0.034447514
93	0x3a89d929	0.0010516989
94	0x3a300641	0.0006714799
95	0xbc98e71c	-0.018664889
96	0xbcc76422	-0.02433974
97	0x3d78afeb	0.060714643
98	0x3cd60767	0.026126577
99	0x3c94f7f7	0.018184645
100	0xbb2f0fe9	-0.0026712364
101	0xbcd72780	-0.026263952
102	0x3b5d399a	0.0033756257
103	0x3c30abc9	0.010783144
104	0x3caafb90	0.020871907
105	0xbd1c09b0	-0.038095176
106	0xbb30e236	-0.00269903
107	0xbc432c9a	-0.011912489
108	0xbcdbd86c	-0.026836596
109	0x3d4a69d8	0.049417347
110	0x3c4391a5	0.01193658
111	0x3d783ffd	0.0606079
112	0xbc943483	-0.018091446
113	0x3d09ce3c	0.033643946
114	0xbcac034d	-0.020997668
115	0xbc63287e	-0.013864635
116	0xbd800b8c	-0.062522024
117	0x3d891355	0.066931404
118	0x3a825199	0.0009942531
119	0x3c9aa2fc	0.018876545
120	0xbca4fc6a	-0.020139892
121	0xbcc01678	-0.023448214
122	0x3cd419b7	0.025891168
123	0xbd15c331	-0.036563102
124	0xbc334a0a	-0.010942945
125	0x3ca2471e	0.019809302
126	0xbccf0159	-0.025269197
127	0xbd8e22de	-0.06940244
128	0x3d12570c	0.035727546
129	0x3d02b573	0.031911325
130	0xbd54cbff	-0.05195236
131	0x3d99c581	0.07508374
132	0xbcc6cf94	-0.024268903
133	0xbcb944da	-0.022615839
134	0xbd8af8e2	-0.06785752
135	0x3c96d7d0	0.018413454
136	0xbd69f9a0	-0.057122827
137	0x3a89d45a	0.0010515556
138	0xbc0cde36	-0.008597901
139	0x3ccfc9ba	0.025364745
140	0x3cc6077a	0.024173487
141	0xbc926e63	-0.017874902
142	0x3d471597	0.048604574
143	0xba5f7457	-0.0008524111
144	0xbd3de6b2	-0.046362586
145	0xbda573d6	-0.080787346
146	0x39bb2843	0.00035697417
147	0xbbd38b5e	-0.006455823
148	0x3b3d6415	0.0028898765
149	0xbd23d5db	-0.03999887
150	0x3b435f13	0.0029811307
151	0x3cc8f344	0.02453006
152	0xbc451e45	-0.012031143
153	0xbcab3656	-0.020899933
154	0x3ca94fca	0.02066793
155	0xbd91810f	-0.07104694
156	0x3d1f3f5f	0.038878795
157	0x3c4a847d	0.012360689
158	0x3c0d012f	0.008606239
159	0xbcc69a89	-0.02424361
160	0xbcfd5446	-0.030923974
161	0x3d3220c9	0.043488298
162	0x3d05e33a	0.032687403
163	0xbc639aa9	-0.013891854
164	0x3d08ee67	0.033430483
165	0xbc672e2f	-0.014110132
166	0xbb5d8d9c	-0.003380633
167	0x3b287f43	0.002571062
168	0xbd099cf0	-0.033596933
169	0x3b56dad3	0.0032784238
170	0x3d238109	0.03991798
171	0xbd027813	-0.031852793
172	0x3d5c58ee	0.053795747
173	0x3c0250ca	0.007953832
174	0x3cd31805	0.02576829
175	0x3ca0a214	0.019608535
176	0xbac1827f	-0.0014763622
177	0xbc095a4a	-0.008383343
178	0xbdfb3416	-0.12265794
179	0xbce3b7b1	-0.027797552
180	0x3c38561c	0.011250999
181	0x3c303042	0.010753693
182	0x3d19e414	0.037571028
183	0xbd6b36cc	-0.057425305
184	0xbd4e99fb	-0.050439816
185	0xbd166f16	-0.036727034
186	0xbd7ec924	-0.06220354
187	0x3cc533ad	0.024072492
188	0x3ba2a965	0.004964041
189	0x3cdb26a3	0.026751822
190	0xbc45edc9	-0.012080618
191	0xbc2715ca	-0.010198066
192	0x3db74943	0.089495204
193	0x3cfb3e88	0.030669466
194	0x3d90edc0	0.07076597
195	0xbce777f6	-0.028255444
196	0xbd41564c	-0.04720144
197	0xbd054500	-0.032536507
198	0xbd556af5	-0.052103955
199	0xbcc3592f	-0.023846237
200	0x3ae71081	0.001762882
201	0x3cc6a5f2	0.02424905
202	0xbc51741d	-0.012784031
203	0x3cf6cf1a	0.03012805
204	0x3d384f18	0.044997305
205	0xbd27e3b6	-0.040988646
206	0xbd511c62	-0.05105246
207	0xbd4a631d	-0.049410928
208	0x3c819388	0.015817419
209	0x3c90b9e0	0.017666757
210	0x3cc5381c	0.024074607
211	0xbd044ad7	-0.032297935
212	0x3cb68256	0.022278946
213	0xbccbc13b	-0.024872413
214	0x3d07a83e	0.033119433
215	0xbd1fb940	-0.038995028
216	0xbcebf111	-0.028801473
217	0xbc56ebb9	-0.013117724
218	0xbce24276	-0.027619582
219	0xbaed42fc	-0.0018101628
220	0xba32b7fc	-0.0006817577
221	0x3bf2c000	0.007408142
222	0x3d1da0c7	0.038483407
223	0xbd7414f7	-0.059590306
224	0x39701a96	0.00022898088
225	0x3ce20878	0.027591929
226	0xbc7bcee7	-0.015369154
227	0xbd5899c9	-0.052881036
228	0xbcc6d1c3	-0.024269944
229	0x3c6d96b9	0.014501267
230	0x3d17fb39	0.03710482
231	0x3ba8cb26	0.0051511703
232	0x3d412988	0.047158748
233	0x3be368d1	0.0069399853
234	0xbb7eff41	-0.0038909467
235	0xbd57f696	-0.052725397
236	0xbccb9b51	-0.024854334
237	0xbbe4b4a7	-0.0069795433
238	0x3d305d6c	0.043057844
239	0x3c63dab6	0.013907125
240	0xbc7a6fe5	-0.015285467
241	0xbd932d7a	-0.07186408
242	0x3cde56fd	0.027141089
243	0xbd37569b	-0.044760328
244	0x3c83669c	0.016040139
245	0xbd516dd7	-0.051130142
246	0x3d1a2170	0.037629545
247	0x3d838031	0.06420935
248	0xbc233fc3	-0.009963932
249	0xbc5f3050	-0.013622358
250	0xbb64573c	-0.0034842035
251	0x3d0c04cc	0.034184262
252	0xbc19ff3f	-0.009399234
253	0x3c95a49e	0.018266972
254	0x3c4308a5	0.0119039165
255	0xbbdb7d67	-0.0066982987

conv1.bias f4 [128]
0	0xbbc32c52	-0.005956211
1	0xbc2ae7cb	-0.01043124
2	0xbd34443a	-0.04401038
3	0x3d2df662	0.042471297
4	0x3cfe4405	0.031038294
5	0xbafb6be7	-0.0019181938
6	0xbcd3d170	-0.025856704
7	0xbd590d2a	-0.05299107
8	0xbc6f51d1	-0.014606909
9	0x3bf458eb	0.007456889
10	0x3d13bddb	0.036069732
11	0xbc27e549	-0.010247537
12	0xbc5e0601	-0.013551236
13	0xbb269e2a	-0.0025423863
14	0x3b995d6e	0.004680327
15	0x3cd191b3	0.02558217
16	0xbc72be68	-0.014815904
17	0xbc935e85	-0.017989406
18	0xbc8d39f4	-0.017239548
19	0xbb9938f4	-0.004675979
20	0x3c822e06	0.015891086
21	0xbc226bb5	-0.009913375
22	0xbc95fea3	-0.018309897
23	0x3d06874c	0.032843873
24	0x3c750684	0.014955167
25	0x3d2bb543	0.04192091
26	0xbc571d18	-0.013129495
27	0x3be1bf75	0.0068892785
28	0x3c518cdd	0.012789932
29	0xbb861b04	-0.004092576
30	0x3cf51cf4	0.029921032
31	0xbc023e57	-0.007949433
32	0xbd2dceae	-0.042433433
33	0xbd1e7cbd	-0.03869318
34	0xbc9cfe8f	-0.019164352
35	0xbd3ac529	-0.045598183
36	0x3d241a63	0.040064227
37	0x3c3d14e2	0.011540623
38	0xbbb39945	-0.0054809176
39	0x3c1b69d8	0.009485684
40	0xbbb53e8a	-0.005531137
41	0x3d397229	0.045274887
42	0xbb35ba48	-0.002772944
43	0x3b867d0a	0.0041042613
44	0x3cb6643e	0.022264596
45	0xbcf6b842	-0.030117158
46	0xbcb9978a	-0.022655267
47	0xba19432d	-0.0005846497
48	0x3c9a95c4	0.018870242
49	0x398a239b	0.0002634794
50	0xbce9f9bb	-0.028561464
51	0x3c2b9041	0.0104714045
52	0x3a803a0d	0.0009782925
53	0xbd4597b5	-0.048240382
54	0xbc91f9ff	-0.017819403
55	0xbcd56625	-0.026049683
56	0xbba8b46d	-0.0051484616
57	0xbcac866a	-0.021060187
58	0xbc5d3687	-0.01350177
59	0xbd1675cb	-0.03673343
60	0xbc278769	-0.010225155
61	0xbc40f8c5	-0.011778061
62	0xbc8c077f	-0.017093418
63	0x3b46f5f8	0.003035901
64	0x3c469135	0.012119581
65	0x3d007d82	0.031369694
66	0xbc043d3d	-0.008071241
67	0xbc1d889e	-0.009615092
68	0x3d1b0ab9	0.037852023
69	0xbcf114f2	-0.029428933
70	0xbcb06120	-0.021530688
71	0x3cd02ef4	0.025413014
72	0xbd42623a	-0.047456957
73	0xbc591ac2	-0.0132510085
74	0xb91d3fe7	-0.00014996492
75	0x3c950594	0.018191136
76	0x3c973ee0	0.018462598
77	0xbcb47af4	-0.022031285
78	0x3cd500bc	0.026001327
79	0x3cbbc123	0.022919243
80	0x3c0734f5	0.008252372
81	0xbc0f4f73	-0.0087469695
82	0xbc7a112a	-0.015262881
83	0x3d036501	0.032078747
84	0xbcb2939e	-0.021798905
85	0x3ce49830	0.0279046
86	0xbc27b873	-0.010236847
87	0x3d824e51	0.06362594
88	0xbd3e0478	-0.04639098
89	0xbc8f690d	-0.017506147
90	0x3b3b4886	0.0028577163
91	0xbcd6353c	-0.026148431
92	0xbcae2189	-0.021256225
93	0x3ab29295	0.0013624007
94	0x3c5ef26f	0.013607605
95	0xbc24ec7d	-0.010066149
96	0xbc022360	-0.007943004
97	0xbc904b44	-0.017614014
98	0x3d2301df	0.039796706
99	0x3c7d5bd7	0.015463791
100	0x3c37e819	0.01122477
101	0xbb639797	-0.0034727806
102	0x3cd36b11	0.02580789
103	0x3d0465ff	0.032323834
104	0xbb93d6f3	-0.004511708
105	0x3c110ae8	0.008852698
106	0x3d4219e5	0.047387976
107	0xbba4acb3	-0.00502547
108	0xbc75dd55	-0.015006383
109	0x3c6dc2e0	0.014511794
110	0x3cc50b56	0.024053257
111	0xbc0c4ea1	-0.0085636685
112	0xbd35dfaf	-0.044402774
113	0x3b361f51	0.0027789662
114	0xbc4c2dea	-0.012462119
115	0x3c0269bd	0.00795978
116	0x3d218fa8	0.039443642
117	0xbcd08bca	-0.025457282
118	0xbc830ac9	-0.015996354
119	0x3a9c6037	0.001193053
120	0xba9fcf94	-0.00121926
121	0xbc726917	-0.014795563
122	0x3c37c8dc	0.011217322
123	0x3a9470e9	0.0011325154
124	0xbc5ab925	-0.013349806
125	0xbc9c5174	-0.019081809
126	0x3ca13cc4	0.019682296
127	0x3b65c6a4	0.0035061026

conv2.weight f4 [128, 128, 3, 1]
0	0x3cf7234c	0.030168198
1	0xbbe194a3	-0.006884174
2	0x3cd2cd44	0.025732644
3	0xbd225858	-0.039635032
4	0xbd1e73d2	-0.038684674
5	0xbd23fb56	-0.040034615
6	0x3bf3b0fc	0.0074368697
7	0xbcf7c10d	-0.030243421
8	0xbd200a37	-0.03907224
9	0x3d2ea28b	0.04263548
10	0xbd0d90f4	-0.034562066
11	0xbb94472d	-0.0045250864
12	0xbbd53e88	-0.0065076984
13	0xbd1affee	-0.03784173
14	0xbd30070a	-0.042975463
15	0x3cc362fc	0.02385091
16	0xbd14db04	-0.036341682
17	0x3d25e9ef	0.0405063
18	0xbc155524	-0.009114537
19	0xbd1ace75	-0.03779455
20	0x3ca1991c	0.019726329
21	0xbc511a6a	-0.012762645
22	0x3cce0a90	0.025151521
23	0xbd615953	-0.055016827
24	0xbc88a5e2	-0.016680662
25	0x3cf1cafb	0.029515734
26	0x3cff8610	0.031191856
27	0xbce3b7e4	-0.027797647
28	0xba135112	-0.00056196854
29	0x3af3ef9d	0.0018610839
30	0x3d3e8423	0.046512734
31	0xbba1b643	-0.0049350574
32	0x3cf7da04	0.030255325
33	0xbc77860e	-0.015107645
34	0x3cd1164a	0.025523324
35	0x3d0718fd	0.032982815
36	0x3c9b613f	0.018967269
37	0xbcd15f69	-0.02555819
38	0xbcefef2e	-0.029288854
39	0xbcc571a5	-0.024102041
40	0x3a4a7a1f	0.0007723886
41	0x3d19cdde	0.037549846
42	0xbb0b03e7	-0.0021212043
43	0xbce7fa39	-0.028317558
44	0x3ca953f0	0.020669907
45	0x3d039692	0.032126017
46	0xbca01db0	-0.019545406
47	0xbb998d9e	-0.0046860715
48	0x3ce1c1eb	0.027558288
49	0xbd277693	-0.040884566
50	0xbcaaec7f	-0.020864723
51	0xbd2e89b1	-0.04261178
52	0x3c4b25ae	0.01239912
53	0xbc5004b7	-0.012696437
54	0xbd648884	-0.055794254
55	0xbd32ff43	-0.043700468
56	0x3cc1b0eb	0.023643931
57	0xbd72d867	-0.05928841
58	0xbc12c4c7	-0.008958048
59	0x3be61ac2	0.0070222327
60	0x3a3e1225	0.00072506286
61	0x3c220f08	0.009891279
62	0x3ce57e1f	0.02801424
63	0xbc170cf2	-0.009219395
64	0xbd5b6ae9	-0.053568754
65	0xbd35c9fd	-0.044382084
66	0xbd058b3d	-0.03260349
67	0xbc97d585	-0.018534431
68	0xbbc67356	-0.0060562296
69	0x3bfc8f0d	0.0077074827
70	0xbd0edc1d	-0.034877885
71	0x3d429f32	0.0475151
72	0x3d304b1f	0.04304039
73	0x3d1fe06f	0.039032396
74	0x3c45933f	0.012059032
75	0x3b7519d7	0.0037399435
76	0xbaeaf9fd	-0.0017927286
77	0x3c927564	0.017878242
78	0xbb5298ee	-0.003213461
79	0xbc520493	-0.012818473
80	0xbc3303a6	-0.010926163
81	0x3c002ead	0.007823628
82	0x3ae4faff	0.0017469822
83	0xbc8db5a4	-0.017298527
84	0x3ca3c366	0.019990634
85	0xbd778ef5	-0.06043907
86	0xbc7504ae	-0.014954729
87	0xbd083828	-0.03325668
88	0xbc4d7b31	-0.012541578
89	0xbcb87837	-0.02251826
90	0xbaeb904c	-0.0017972081
91	0xbcbdd706	-0.02317382
92	0xbc975663	-0.01847381
93	0xbcf0cf7e	-0.029395815
94	0xbd0d87cb	-0.03455333
95	0xbd399c6b	-0.045315187
96	0xbd25653f	-0.04037976
97	0x3c671fc1	0.014106692
98	0xbcced945	-0.025250087
99	0x3c1c072d	0.009523195
100	0xbd3bee3b	-0.04588149
101	0xbbc40049	-0.0059814793
102	0x3cdaca5a	0.026707817
103	0xbc5eb3c7	-0.013592667
104	0xbca78ba0	-0.02045232
105	0x3d244483	0.0401044
106	0x3aadb0b4	0.0013251514
107	0xbc6be6e1	-0.014398308
108	0xbd0406aa	-0.032232918
109	0x3d1719a8	0.036889702
110	0x3c2847f4	0.010271061
111	0xbc04616b	-0.008079867
112	0x3c38edb8	0.011287145
113	0x3c4babe4	0.012431119
114	0x3a38813b	0.00070383
115	0xbaf7e022	-0.0018911401
116	0x3ccf5de5	0.025313327
117	0xbca6f9b8	-0.020382747
118	0x3ca79bb9	0.020459997
119	0xbd0eb60f	-0.034841593
120	0x3c42fad3	0.0119006215
121	0xbd6e456f	-0.058171686
122	0x3d16f3fb	0.03685377
123	0x3cd27a12	0.025692973
124	0x3d08647f	0.033298966
125	0xbc607665	-0.013700102
126	0xbd59f8f8	-0.05321595
127	0x3d3556ed	0.044272352
128	0x3c1e436d	0.00965963
129	0xbd522616	-0.051305853
130	0x3bd2113e	0.006410747
131	0x3ce40bcd	0.027837658
132	0x3bb3b1fb	0.0054838634
133	0x3cd616b4	0.026133873
134	0xbd2bcaa7	-0.04194131
135	0x3c09b460	0.008404821
136	0x3cc26543	0.023729926
137	0xbc9e8c7b	-0.019354096
138	0xbd35898e	-0.044320635
139	0xbd02d07d	-0.03193711
140	0xbd60f1bb	-0.054918032
141	0x3d3f6d7b	0.046735268
142	0xbc99df45	-0.018783221
143	0x3b41b61d	0.002955801
144	0xbd01b612	-0.031667776
145	0xbd402d29	-0.046918068
146	0xbac7b17a	-0.0015235387
147	0xbd60c3b7	-0.05487415
148	0x3d0fe8b2	0.035134025
149	0x3c6cd349	0.014454671
150	0x3cc79fdf	0.024368225
151	0x3c300960	0.010744423
152	0x3c514a87	0.012774116
153	0x3846c363	4.7388847e-05
154	0xbd747d8d	-0.059690047
155	0xbc6c5a2e	-0.014425797
156	0xbd6fa2bc	-0.058504805
157	0x3d070b64	0.032969847
158	0xbc4d38e7	-0.012525774
159	0xbb03bab6	-0.0020100302
160	0x3b655f84	0.0034999559
161	0xbd5dc34c	-0.054141328
162	0x3d272698	0.04080829
163	0xbc393ab6	-0.011305502
164	0xbc6e117f	-0.014530539
165	0xbd3d18a5	-0.04616608
166	0x3ca61697	0.020274444
167	0x3c9d4543	0.019198066
168	0xbad49fe6	-0.001622197
169	0x3c6cf015	0.014461537
170	0xbd6a39e2	-0.057184108
171	0x3d0686d3	0.032843422
172	0xbc413881	-0.011793257
173	0x3d2a0b35	0.041514594
174	0x3b8f6f22	0.0043772617
175	0x3c657eae	0.014007254
176	0x39cbddb3	0.00038884356
177	0xbd2a74ae	-0.04161518
178	0x3b1a803a	0.0023574964
179	0x3c0883b6	0.008332184
180	0x3c90e940	0.017689347
181	0xbd2c3043	-0.042038213
182	0xbd41ff2a	-0.047362484
183	0x3cf483f0	0.029848069
184	0xbd233130	-0.03984183
185	0x3d373733	0.044730376
186	0x3d338b4c	0.043834016
187	0x3c7a7d90	0.0152887255
188	0x3c3f5891	0.011678831
189	0xbd348be4	-0.044078723
190	0x3ca293ef	0.01984593
191	0x3cef2e1b	0.02919679
192	0xbc1f2d32	-0.009715365
193	0x3d3239ee	0.043512277
194	0xbc10714c	-0.008816075
195	0x3cf546b0	0.029940933
196	0x3d056061	0.032562617
197	0x3ce61699	0.028086947
198	0x3c84c102	0.016205315
199	0xbd47209e	-0.04861509
200	0xbc40adab	-0.011760156
201	0x3c182441	0.009285987
202	0xbcfb8757	-0.030704184
203	0x3d20cbf2	0.039256997
204	0xbcd34d7a	-0.02579378
205	0xbd1ce065	-0.038299937
206	0xbc7b64a7	-0.015343822
207	0xbd003ae4	-0.031306162
208	0x3d14a9a3	0.03629459
209	0x3be5ac84	0.007009091
210	0x3c5d09a5	0.013491069
211	0x3c447039	0.011989647
212	0xbceb17c7	-0.028697861
213	0xbd13983c	-0.036033854
214	0x3c8e02d0	0.017335325
215	0xbc63e82b	-0.013910334
216	0x3cdb6901	0.026783468
217	0x3b148882	0.0022664373
218	0xbd035c50	-0.032070458
219	0x3592d622	1.0940169e-06
220	0x3cb5cb0d	0.022191549
221	0xbc9a388f	-0.018825797
222	0x3d3a7d73	0.045529794
223	0x3c5abe9b	0.013351108
224	0xbd645de4	-0.055753604
225	0xbcb8164d	-0.022471571
226	0x3cb09c96	0.021559041
227	0xbaff7a53	-0.0019491412
228	0x3d244b06	0.04011061
229	0x3d07819d	0.033082593
230	0xbd577142	-0.052598245
231	0x3c29ab03	0.010355714
232	0x3d2dfaa3	0.042475354
233	0xbcfbcd25	-0.030737469
234	0xbc8b54b4	-0.017008163
235	0xbd3d582f	-0.046226677
236	0xbd26ca31	-0.04072017
237	0x3b9382fe	0.0045016995
238	0xbd17827f	-0.036989685
239	0x3b40f37e	0.0029442008
240	0xbaf4ffbf	-0.0018691941
241	0xbc10e58d	-0.008843792
242	0x3d0192ac	0.031634018
243	0x3d29d0be	0.041458838
244	0x3ca63351	0.020288141
245	0x3ca7c73f	0.02048075
246	0x3b989479	0.004656371
247	0x3c79aba1	0.015238673
248	0xba32afba	-0.00068163464
249	0x3c6aeb92	0.014338391
250	0xbceaf8c7	-0.02868308
251	0x3bfbe67f	0.0076873894
252	0xbbd3b0bc	-0.0064602774
253	0x3d0502d7	0.03247341
254	0x3c8abe16	0.016936343
255	0x3ba5c03d	0.005058317

conv2.bias f4 [128]
0	0xbc9366f7	-0.017993433
1	0xbc8cf86c	-0.0172083
2	0xbbe0ef0b	-0.0068644336
3	0x3cadbdf7	0.021208746
4	0xbbf2c3b1	-0.007408582
5	0x3cf3d46f	0.029764382
6	0x3c20c40e	0.009812368
7	0xbb3d8f87	-0.002892466
8	0xbacf0048	-0.001579293
9	0xbd4cecc8	-0.0500305
10	0xbcac7268	-0.021050647
11	0xbd000d30	-0.031262577
12	0x3c904447	0.017610682
13	0xbd7640e6	-0.060120486
14	0xbca22a79	-0.019795643
15	0xbc973b7c	-0.018460982
16	0xbcc5394a	-0.02407517
17	0xbbd3de97	-0.0064657438
18	0xbcc6ec4f	-0.024282603
19	0x3c171e0e	0.009223474
20	0x3d2ad685	0.041708488
21	0xbd7824f3	-0.060582113
22	0x3cf4a227	0.029862477
23	0xb9c41b0a	-0.0003740418
24	0xbcfb31a2	-0.030663315
25	0x3bc8f91a	0.006133211
26	0xbcf6e125	-0.030136654
27	0xbd84f567	-0.06492119
28	0xbd28756e	-0.041127615
29	0x3c70e3fe	0.014702795
30	0x3c3c1944	0.011480633
31	0xb9875942	-0.0002581571
32	0x3ad99e6d	0.0016603001
33	0x3c701b4b	0.014654945
34	0xbcbbd5d4	-0.02292911
35	0xbd2c281f	-0.04203045
36	0xbd63c11d	-0.05560409
37	0x3cc14383	0.023591762
38	0xba6a3c93	-0.0008935418
39	0x3cfeca81	0.03110242
40	0xbcaed251	-0.021340521
41	0xbd729720	-0.059226155
42	0x3cd822fc	0.02638387
43	0xbbfcbaae	-0.0077126836
44	0x3c1245a9	0.008927741
45	0x3d11f1e4	0.035631076
46	0x3d30a5e3	0.043126952
47	0xbc7fcc61	-0.015612693
48	0x3cb60e7d	0.022223705
49	0xbb321304	-0.0027171979
50	0x3cb8b911	0.022549184
51	0xbd3b2b54	-0.045695618
52	0x3d903bd9	0.07042665
53	0xbd33360f	-0.043752726
54	0x3d5df42b	0.054187935
55	0xbc10ec79	-0.008845442
56	0xbbb68817	-0.0055704224
57	0x3d3ce963	0.046121012
58	0xbc9a7d5b	-0.018858602
59	0xbd208c1e	-0.039196126
60	0xbcc76e5b	-0.024344614
61	0xbd4e3c26	-0.05035033
62	0xbc7ada7a	-0.015310878
63	0xbd1ccbaa	-0.038280167
64	0xbbc363e2	-0.0059628347
65	0xbc70c1ef	-0.014694675
66	0xbcc5f34c	-0.024163865
67	0xbc803cc5	-0.015653977
68	0x3d8a993a	0.06767507
69	0x3cca0720	0.0246616
70	0x3c4bc7cc	0.012437772
71	0x3d30ab7c	0.04313229
72	0xbcf53a87	-0.029935135
73	0xbd157fe1	-0.036498908
74	0xbd335d54	-0.043790177
75	0xbc140bc9	-0.009036013
76	0xbd7ea7bb	-0.06217168
77	0x3d0ebfba	0.034850813
78	0xbd4bc56e	-0.04974883
79	0x3c6b317f	0.0143550625
80	0x3d4646d4	0.04840739
81	0x3b81e32e	0.0039638495
82	0x3d12876e	0.035773687
83	0x3ccbb544	0.024866708
84	0x3c7f9a39	0.015600734
85	0x3ca52dfe	0.020163532
86	0xbd7d03db	-0.061771255
87	0x3c909b9d	0.017652327
88	0xbd4f5db6	-0.05062648
89	0xbd2c6e39	-0.042097304
90	0xbcfc5de7	-0.030806495
91	0xbd5a4021	-0.053283814
92	0x3c71ca0a	0.0147576425
93	0xbcd20105	-0.025635252
94	0x3c16c4c6	0.009202188
95	0xbd14e9bf	-0.03635573
96	0xbd202011	-0.03909308
97	0xbc9ed0b9	-0.019386636
98	0x3c7fcdac	0.015613001
99	0x3c8034d9	0.0156502
100	0x3d022293	0.031771254
101	0x3b272efd	0.0025510185
102	0x3c7b2d18	0.015330575
103	0x3c81f2d1	0.015862854
104	0xbca6657f	-0.020312069
105	0x3cefcc2c	0.029272161
106	0xbd63fe9c	-0.055662736
107	0x3c3b9e6c	0.011451345
108	0xbb70408b	-0.0036659564
109	0xbd04d64d	-0.032430936
110	0x3cae5551	0.021280916
111	0xbb419a1a	-0.0029541315
112	0x3a834782	0.0010015818
113	0xbc8e20ce	-0.017349627
114	0xbc3dba34	-0.011580039
115	0xbc0b3f0d	-0.008498919
116	0x3d7a1ca9	0.06106249
117	0x3d8a526f	0.06754004
118	0xbd5dbe19	-0.05413637
119	0xbd15c09b	-0.036560636
120	0xbb537026	-0.003226289
121	0xbd6a6170	-0.05722183
122	0xbd3d5cab	-0.046230953
123	0x3c30213c	0.010750111
124	0x3d401db6	0.046903335
125	0x3c1ac595	0.009446521
126	0x3ca74d0c	0.020422481
127	0xbd215675	-0.039389092

fc1.weight f4 [64, 128]
0	0x3db4e741	0.08833171
1	0xbc6b34d8	-0.014355861
2	0xbda7b918	-0.08189601
3	0xbd7a4650	-0.06110221
4	0x3d3dc752	0.046332665
5	0xbd085a75	-0.03328939
6	0x3d368776	0.04456278
7	0xbda2bc05	-0.07946018
8	0xbc20c600	-0.009812832
9	0x3da925fd	0.08259199
10	0x3c2b37c8	0.010450311
11	0xbcb9e8f4	-0.022694089
12	0x3d2217da	0.039573528
13	0x3d34039a	0.043948747
14	0x3be3bfd0	0.006950356
15	0xbd34fdd5	-0.044187386
16	0x3d7a379e	0.061088197
17	0x3c65b488	0.014020093
18	0xbd9bda01	-0.0760994
19	0xbd069a7f	-0.032862183
20	0xbd418fbc	-0.047256216
21	0x3d20210e	0.039094023
22	0x3c82cf20	0.015967906
23	0x3c5e6698	0.013574265
24	0x3d3eebae	0.04661148
25	0xbd977a30	-0.07396352
26	0xbcb310ec	-0.021858655
27	0xbd89f7b4	-0.06736699
28	0xbd2f8d38	-0.042859286
29	0xbc818a74	-0.01581309
30	0x3c7bdb98	0.015372179
31	0x3c865760	0.016399086
32	0xbd06613b	-0.03280757
33	0xbcca7808	-0.024715438
34	0xbd61f90c	-0.05516915
35	0x3d29e32e	0.04147642
36	0xbc66fba8	-0.014098085
37	0xbd80e8c4	-0.062943965
38	0xbda3713b	-0.079805814
39	0xbc671c48	-0.014105864
40	0xbd53559f	-0.051595327
41	0x3cdbcb84	0.026830442
42	0x3d457cb6	0.048214637
43	0xbd340831	-0.043953124
44	0x3c25ef88	0.0101279095
45	0xbd39da44	-0.04537417
46	0xbd85e5aa	-0.065379456
47	0x3daec921	0.08534456
48	0xbc426150	-0.011864021
49	0x3d52f64a	0.05150441
50	0x3d1e0a4e	0.038584046
51	0x3ad19540	0.0015989915
52	0xbc98b438	-0.018640622
53	0x3c1352c8	0.008991905
54	0x3d3cb9a6	0.046075486
55	0x3d46fd3e	0.048581354
56	0x3cf69ca4	0.030103989
57	0x3d5dfb3a	0.054194666
58	0xbda91930	-0.08256757
59	0xbd54d779	-0.051963303
60	0xbd14e6d0	-0.036352932
61	0x3c11d8d8	0.008901797
62	0x3dadeacb	0.08492049
63	0x3d9383f1	0.072029
64	0xbd8905d1	-0.066905625
65	0xbcd21e4c	-0.025649212
66	0xbccd27fc	-0.02504348
67	0x3c254b60	0.010088772
68	0x3d015992	0.03157956
69	0x3c7b8cf8	0.015353434
70	0xbbbc5e50	-0.0057485476
71	0x3d68ba6a	0.056818403
72	0xbbf4e280	-0.00747329
73	0xbd8c09ee	-0.068378314
74	0x3da5b40d	0.080909826
75	0xbd92a677	-0.07160657
76	0x3d8797ff	0.06620788
77	0xbdafae39	-0.08578152
78	0x3cd25a84	0.025677927
79	0xbd875b60	-0.06609225
80	0xbdafb60e	-0.08579646
81	0xbd79274c	-0.060828492
82	0xbd52064a	-0.05127553
83	0xbcbf4b5c	-0.023351364
84	0xbd965890	-0.07341111
85	0x3c8e7a1c	0.01739221
86	0xbd9ad438	-0.07560009
87	0xbd8a1062	-0.06741406
88	0x3d6b0ac2	0.057383306
89	0x3d20840a	0.039188422
90	0xbb4031c0	-0.0029326528
91	0x3da41ce3	0.08013322
92	0xbbf1ebc0	-0.00738284
93	0x3c50c330	0.012741849
94	0xbd333aa8	-0.04375711
95	0x3d17101e	0.036880605
96	0x3c823268	0.015893176
97	0x3d3cd546	0.04610183
98	0xbc8c0bb0	-0.017095417
99	0x3d33c0ea	0.04388515
100	0xbd9cb71a	-0.07652111
101	0xbbb303c0	-0.0054630935
102	0xbc9c8a80	-0.01910901
103	0xbd32d8e6	-0.04366388
104	0xbd8b5c60	-0.068047285
105	0x3d641fe6	0.055694483
106	0x3d3a0f1e	0.045424573
107	0x3d451d6a	0.048123755
108	0xbd52a352	-0.051425286
109	0x3d481436	0.0488474
110	0x3c01e100	0.007927179
111	0xbafe8c80	-0.0019420534
112	0xbd7c2a44	-0.061563745
113	0xbd83b4f4	-0.064309984
114	0xbda12f4a	-0.07870348
115	0xbd6e8308	-0.05823043
116	0xbd0212bb	-0.031756144
117	0xbd86a0c1	-0.0657363
118	0xbd6c4387	-0.057681587
119	0x3d62fb4a	0.05541543
120	0xbca72280	-0.020402193
121	0x3d75ad3e	0.05997967
122	0xbd89cff4	-0.06729117
123	0x3cd2dfd4	0.025741495
124	0x3b84c380	0.0040516257
125	0xbd8ef2ac	-0.0697988
126	0xbd9e4d94	-0.077296406
127	0xbd869380	-0.06571102
128	0x3d5497e7	0.051902678
129	0xbd690d98	-0.05689773
130	0x3dde1ecb	0.10845717
131	0xbd72e84c	-0.059303567
132	0x3c69386a	0.014234642
133	0xbcd1a608	-0.025591865
134	0xbdf8cc6d	-0.12148366
135	0x3da05d46	0.078302905
136	0xbd222aff	-0.039591786
137	0x3cc73af6	0.024320107
138	0x3d8c493c	0.06849906
139	0x3d060d00	0.03272724
140	0x3d868a3f	0.06569337
141	0x3dd2b24c	0.10287914
142	0x3d6aea9c	0.057352647
143	0x3cc69c20	0.024244368
144	0xbcff206d	-0.031143392
145	0xbdcd58e6	-0.10026722
146	0x3cd24f71	0.025672646
147	0xbd6629e6	-0.0561923
148	0xbc176c1d	-0.009242085
149	0x3d581212	0.05275161
150	0xbcc390a3	-0.02387268
151	0xbd59e3bb	-0.053195696
152	0x3e05a83b	0.13052456
153	0x3b7548f3	0.0037427514
154	0x3cef1999	0.02918701
155	0xbdb6a34a	-0.08917864
156	0x3e0cd46d	0.13752909
157	0x3d8e58b2	0.06950511
158	0xbd88b638	-0.066753805
159	0x3ddd0ce9	0.10793478
160	0x3dd0002a	0.10156281
161	0x3d8b5615	0.06803528
162	0xbd39591d	-0.045251
163	0xbd6d188a	-0.05788473
164	0xbd63c145	-0.055604238
165	0x3d9a99b5	0.075488485
166	0xbc875bb0	-0.016523212
167	0xbda25f0f	-0.07928287
168	0x3d3931b9	0.045213435
169	0x3dce7680	0.10081196
170	0xbd0d813b	-0.034547072
171	0x3dc5c30b	0.09656342
172	0x3cdca283	0.02693296
173	0xbc74db74	-0.0149449
174	0x3dd5ddf2	0.10442723
175	0x3d6b796b	0.05748884
176	0xbdb4075c	-0.08790466
177	0xbd0706c5	-0.03296544
178	0x3dae5895	0.085129894
179	0x3ccf4572	0.025301669
180	0x3cef5d3e	0.029219266
181	0xbd19034d	-0.037356663
182	0xbd0b2000	-0.033966064
183	0xbd4f36e0	-0.050589442
184	0x3de48a89	0.11159236
185	0xbbe7245c	-0.007053895
186	0xbc81825a	-0.015809227
187	0xbcc8944d	-0.024484778
188	0xbb615d8a	-0.003438803
189	0x3c2a753a	0.010403926
190	0x3d899562	0.06717946
191	0xbd8b7798	-0.0680992
192	0xbdc216d5	-0.09477011
193	0x3d334f8a	0.043777026
194	0x3b63b90e	0.0034747752
195	0x3df1cf0e	0.11807071
196	0x3d345ab7	0.044031825
197	0x3d274a12	0.040842123
198	0x3d0c0afa	0.034190156
199	0xbd84abce	-0.06478082
200	0xbd1af8d9	-0.037834976
201	0xbda4cd40	-0.08046961
202	0xbcd0596d	-0.025433267
203	0xbcc35c16	-0.023847621
204	0x3d2dd22d	0.042436767
205	0x3c605529	0.013692179
206	0x3d0353e9	0.032062445
207	0xbd220a6f	-0.03956073
208	0xbd2d7d1c	-0.04235564
209	0xbd907d40	-0.070551395
210	0xbdb6860e	-0.08912288
211	0x3ccf7a65	0.025326917
212	0x3d73070c	0.059332892
213	0x3dee3b61	0.116324194
214	0x3d268960	0.040658355
215	0x3c3eca5d	0.011644927
216	0xbd325e3d	-0.043546904
217	0x3d66616a	0.056245245
218	0x3d6f7d0e	0.05846887
219	0xbce38d18	-0.02777724
220	0xbd089946	-0.033349298
221	0x3db1a244	0.08673528
222	0xbcd93f5d	-0.026519472
223	0xbde3ddb7	-0.11126273
224	0x3d3dd62b	0.046346825
225	0xbc3f0683	-0.011659267
226	0xbd659cc1	-0.056057695
227	0x3d58fd19	0.052975748
228	0x3c42c44b	0.01188762
229	0xbcf7c895	-0.030247012
230	0xbceefdc6	-0.029173743
231	0xbb58ac3d	-0.0033061646
232	0xbd3bca6d	-0.045847345
233	0x3d7085f4	0.058721498
234	0x3da60fb7	0.08108466
235	0x3d8f99bd	0.07011745
236	0x3d57890d	0.052620936
237	0xbd2b199e	-0.041772477
238	0x3dcc4ada	0.09975214
239	0xbc4df9ef	-0.012571796
240	0x3d8bdfd1	0.06829799
241	0x3d289af9	0.04116342
242	0x3d43f65e	0.047842376
243	0xbd9169ee	-0.071002826
244	0x3cffd03c	0.031227224
245	0x3cce99f5	0.025219897
246	0x3d2ff400	0.042957306
247	0x3d363752	0.04448635
248	0x3d0165fa	0.031591393
249	0x3d90a6d1	0.07063068
250	0xbc717723	-0.014737877
251	0x3d538956	0.051644646
252	0x3de04d70	0.1095227
253	0xbdad45fc	-0.08460614
254	0x3cea3927	0.028591705
255	0xbbfe9153	-0.007768789

fc1.bias f4 [64]
0	0xbc4e70f8	-0.012600176
1	0x3da61ef5	0.08111373
2	0xbc1e6e82	-0.009669902
3	0x3db97b46	0.09056716
4	0xbda4deb8	-0.08050293
5	0x3d33ce76	0.04389807
6	0xbc57431e	-0.013138561
7	0x3d54591f	0.051842805
8	0x3d4dc28a	0.050234355
9	0xbd698e8d	-0.057020713
10	0x3d6ebc55	0.058285076
11	0x3c9d06c8	0.019168273
12	0x3d9fe52a	0.078073815
13	0x3bfe9ea6	0.007770377
14	0x3d069c48	0.032863885
15	0xbd758f1f	-0.059950944
16	0xba2718a9	-0.0006374219
17	0x3c586615	0.013207932
18	0x3cfcc846	0.030857217
19	0xbdaa79d3	-0.083240174
20	0x3da0ac32	0.07845344
21	0xbd782a62	-0.060587294
22	0xbd6b4d74	-0.057446912
23	0x3cec1718	0.028819606
24	0xbdaa3b9a	-0.08312149
25	0xbd089dd7	-0.033353653
26	0xbd2ed7bd	-0.042686213
27	0x3d6dd250	0.058061898
28	0x3bd109b0	0.0063793287
29	0xbdb8fadd	-0.090322234
30	0xbd537f55	-0.051635105
31	0xbd68cef7	-0.056838002
32	0x3d7a0154	0.061036423
33	0x3cd65e2b	0.02616795
34	0xbc57c4ab	-0.013169448
35	0x3c8f13b3	0.017465448
36	0xbc3f9118	-0.011692308
37	0x3d7b98dc	0.061425075
38	0xbdb3e16f	-0.087832324
39	0x3d2018d5	0.03908618
40	0xbd04befd	-0.032408703
41	0x3d2766ca	0.04086951
42	0xbcad916f	-0.021187512
43	0x3c950cdd	0.01819461
44	0xbc67ecc8	-0.014155574
45	0xbdaed3fe	-0.08536528
46	0xbda75491	-0.08170427
47	0x3d904767	0.07044869
48	0xbd85b4f8	-0.06528658
49	0x3ce56079	0.028000103
50	0x3d581021	0.052749757
51	0x3d1f6101	0.03891087
52	0xbc1a2bbc	-0.009409841
53	0xbd1a8214	-0.03772171
54	0xbdc24c12	-0.094871655
55	0x3d6f87f3	0.05847926
56	0x3c4776ed	0.01217435
57	0xbdba333f	-0.09091806
58	0x398056f9	0.00024478862
59	0xbd6ee54c	-0.058324143
60	0xbc8cf3c0	-0.017206073
61	0xbc963389	-0.01833512
62	0xbc8bf9e4	-0.01708693
63	0xbd963548	-0.07334381

fc2.weight f4 [2, 64]
0	0x3dc3c566	0.09559135
1	0x3dd637ca	0.1045986
2	0x3dd3c9a4	0.10341194
3	0xbe0e4812	-0.1389468
4	0xbd682bc8	-0.056682378
5	0x3b9594b1	0.0045648445
6	0xbe1f928d	-0.15583248
7	0xbe0a34c8	-0.13496697
8	0xbe09044e	-0.13380548
9	0xbd86a23a	-0.06573911
10	0xbe0d5021	-0.13800098
11	0xbd6c897a	-0.057748295
12	0x3e1e894f	0.15482067
13	0x3c62f845	0.013853137
14	0xbde3b25a	-0.11118002
15	0xbda40236	-0.08008234
16	0xbcae8785	-0.021304855
17	0xbd861887	-0.06547647
18	0xbdedd4e5	-0.11612872
19	0xbdcc8956	-0.09987132
20	0x3d747d40	0.05968976
21	0xbde63194	-0.11239925
22	0xbde705b6	-0.11280386
23	0xbd5cd2f0	-0.053912103
24	0x3da94b6c	0.08266339
25	0x3e085b79	0.13316144
26	0xbd5f38b4	-0.054497436
27	0xbdbc6e30	-0.09200704
28	0x3dd5d077	0.10440152
29	0x3d3dd852	0.046348877
30	0xbcf83ed1	-0.03030339
31	0x3c5f3575	0.013623585
32	0x3d0cfd9c	0.03442155
33	0x3e1928d4	0.14956981
34	0xbda40cf4	-0.08010283
35	0x3dbce27f	0.09222888
36	0xbd95d30b	-0.07315644
37	0xbe134e04	-0.1438523
38	0x3df63f2d	0.120237686
39	0x3dd63de1	0.10461021
40	0x3d7185d0	0.058965504
41	0xbde62e8a	-0.11239345
42	0xbe44ee1e	-0.1923146
43	0xbd1066ff	-0.035254475
44	0xbdf2688c	-0.11836347
45	0xbbdf98a0	-0.0068236142
46	0x3df0f563	0.11765554
47	0xbdbf03f8	-0.09326929
48	0xbe0460bc	-0.12927526
49	0xbcbc6c7e	-0.023000952
50	0x3da4522b	0.08023485
51	0x3ce76b9c	0.028249554
52	0x3da98e61	0.0827911
53	0xbd03a0f3	-0.032135915
54	0x3dab3283	0.08359244
55	0x3defbdbc	0.11706111
56	0xbd485cb0	-0.04891652
57	0xbaa1cf3c	-0.0012345086
58	0x3c823889	0.015896099
59	0x3e12f61e	0.14351699
60	0x3de849d7	0.11342209
61	0xbdd64a12	-0.104633465
62	0x3c6f9630	0.01462321
63	0x3e27bdbd	0.16380973
64	0x3dea8e92	0.114529744
65	0xbe174c35	-0.14775164
66	0xbd5bf621	-0.053701524
67	0x3bf2ab6d	0.0074056895
68	0xbd8c91ca	-0.068637446
69	0x3dbb9f68	0.09161264
70	0xbcf6b5d0	-0.030115992
71	0x3dc76d7d	0.0973768
72	0xbd832979	-0.06404395
73	0x3c9de293	0.019273078
74	0xbbd67dfc	-0.00654578
75	0x3dd3f70c	0.10349855
76	0xbdb1be20	-0.086788416
77	0xbdb30cbd	-0.08742664
78	0xbddfffb2	-0.10937442
79	0x3d87e14c	0.06634769
80	0x3e3006d9	0.17190112
81	0xbd890b23	-0.06691577
82	0xbdd82fa7	-0.10555964
83	0xbdf43eb9	-0.11926026
84	0xbd4f2caa	-0.050579704
85	0xbdfb952e	-0.12284313
86	0xbda37c18	-0.079826534
87	0x3ddfdcb0	0.10930765
88	0x3d8487ae	0.06471191
89	0xbda76583	-0.08173659
90	0x3dc032ea	0.09384711
91	0x3db0febd	0.086423375
92	0x3dea2a43	0.11433842
93	0xbe07fff0	-0.13281226
94	0x3cdd1d15	0.026991406
95	0xbe088f6a	-0.13335958
96	0x3dacd7ba	0.08439584
97	0xbc7aefb8	-0.0153159425
98	0xbdfe385d	-0.12413094
99	0x3db771bd	0.08957241
100	0xbb0f4d97	-0.0021866316
101	0x3c994c97	0.018713279
102	0xbe169a9a	-0.14707413
103	0xbd02b298	-0.0319086
104	0xbbcc1032	-0.0062275166
105	0x3d43973e	0.047751658
106	0x3d67c091	0.05658013
107	0x3a24d9ab	0.00062885386
108	0x3d16bd91	0.03680188
109	0xbdbf48fe	-0.09340094
110	0xbd36e6a6	-0.044653557
111	0x3e490095	0.19629128
112	0xbcf3b42a	-0.029748995
113	0xbdd2dbcc	-0.10295829
114	0xbbdbfd3a	-0.0067135366
115	0x3e49053b	0.19630902
116	0xbdbe9e93	-0.093075894
117	0xbe12bdae	-0.1433017
118	0x3daa3f9c	0.08312914
119	0x3d614a1c	0.055002317
120	0xbc493d70	-0.012282714
121	0x3c315a59	0.010824763
122	0xbc4e2b2d	-0.012583536
123	0x3bd73910	0.0065680817
124	0x3c2e7e2c	0.010650199
125	0x3dc87dc2	0.097896114
126	0xbd814454	-0.06311861
127	0xbddfea6d	-0.10933385

fc2.bias f4 [2]
0	0x3d7b3d85	0.061337966
1	0xbd36a315	-0.04458912
