logs/weights/text/model_1.pth (torch, 694656 bytes, 8 tensors)

conv1.weight f4 [128, 1, 3, 300]
00000000: 94ea d63a 3ed1 81bc cf57 783c 7f8c 40bd
00000010: bca9 be3b bf10 153d 4b76 85bb 3a85 103d
00000020: 4c9a 4dbb 2195 ccbc d1f0 893c 8f16 293d
00000030: b9bb 01bd 0280 8e3c 60f5 273d 4ed1 cb3c
00000040: e177 34bd 3f14 a73b e4d2 533d ff39 ab3c
00000050: 540e 823d 8c98 9cbc d1c3 6d3d dcda d13b
00000060: 2cef dd3c ddbd 243c 4dfc fc3c a8b7 01bc
00000070: b6fd 053d e6ff 123d cff5 adbd 3137 943d
00000080: 2a15 d43a 8730 6739 72cd 413b 5485 a839
00000090: ecd7 673c 2e0b b9bd ebb5 153d a344 c0bb
000000a0: 0a64 1ebd 60ab 4a3d 4f9b 25bc f9bf 30bd
000000b0: cc84 fcbc 6bc9 96bd 69ae a73c 3ade d4bd
000000c0: 85b2 43bd 4e58 30bd 1a73 073d 1c5a 59bd
000000d0: 658f 583d f86d 183d 2f5f d5bb efdf a13d
000000e0: 520a abbb 2ce9 e3bb 104d 99bd a393 8eba
000000f0: ad5b 9d3c 16cc 403d 8701 2cbd 2656 d7bc
00000100: fd74 3b3d 9c32 903b 6d5a 8d3d 347a a2bd
00000110: 5f64 4fbb d002 d3bc e95c 3a3c d23c 053d
00000120: ad32 12bd 52c2 b0bd e669 be3c 9767 c33c
00000130: 82b0 223b 4dba b4bc 4f45 96bc b444 863d
00000140: 57b5 30bc 6550 753b adb1 df3c 43c7 01bc
00000150: d2dc 4fbc 4eb2 ccbb 17cb 0e3a 8f96 713c
00000160: 613d 96bc fd4f c0bc eec4 dfbc 8822 8e3c
00000170: 2607 a53c 30df ecbc 3733 b6ba 9211 413b
00000180: 1b12 84bc 1f9c 393d 9d1a a03c 1cb9 ee3c
00000190: 4e5d 893c 4193 cbbc b298 563b c0f9 ca3c
000001a0: 1987 da3c 919e bfbc 49bd 8cbc 03fd 463b
000001b0: 4e2d fdbc 65f8 fe3c 6da2 b23c 122e 213d
000001c0: f805 67bb 66ca bd3c 6466 aabc 76b5 72ba
000001d0: 840c 50bd 3db7 4d3d a543 963b f2b3 073d
000001e0: f07d c4bc de11 99bc 9b9c 403d c144 55bd
000001f0: 3e3a f7bc f0b6 103d 5633 afbc 2e89 84bd
00000200: 64f7 d53c 7cf1 043d 6ec2 92bd 7783 8b3d
00000210: 333c 15bc a497 f2bb 950b acbd bbf7 843c
00000220: 1beb 80bd a365 11bc e641 7fbc 6ee3 8d3c
00000230: fd43 033d 945e 17bc aab9 ea3c c338 bb3a
00000240: f04e 28bd fe81 44bd dbe1 e93b 5655 9a3b
00000250: 4270 753c 0561 0fbd 92c5 7fbc 3007 583c
00000260: 2aff 72bc 34b7 2ebc 56d9 1d3d 45ed 61bd
00000270: 2c12 163d 0971 ae3b 04de 073c 49f5 31bc
00000280: a268 1ebd c4c9 5a3d 54b1 463c 8300 d83b
00000290: 6d62 9d3c dca5 a73b 0d56 be3a c18c 7fbc
000002a0: de98 32bd 9b08 a7b9 da36 f13c 12c3 48bd
000002b0: b1ef 6a3d 68bc ed3c b6c1 a83c 5936 083d
000002c0: 6b46 94bc 2ecd 703b 913b c8bd bcc6 113c
000002d0: 96ca 563c 4dd3 2a3c abb2 ef3c c951 29bd
000002e0: 968b cabc 7860 36bd 9796 68bd 7e50 933c
000002f0: a6fa fc3b 5158 193d b7a7 47bc 62e7 24bc
00000300: 646d 963d 313a 2a3d 43d0 883d 03c9 3abd
00000310: 0714 d6bc 08ad 7bbc 98aa 54bd ad3d 86bc
00000320: 9840 4f3a 3010 e23c f79c e7bb a0b3 ea3c
00000330: aa84 203d 0ce5 0cbd 882d 5abd c501 32bd
00000340: 433b 4f3c 6222 9c3b 6bf1 8f3c 01cc dabc
00000350: 4f0c c93c 6df4 fb3a 7b02 223d 1188 7ebd
00000360: 68e0 67bd 889e 5ebc ca84 a8bc a703 2cbc
00000370: 1ead d0bb e8db cc3c 7afb 1c3d 4a39 69bd
00000380: 3212 043c 2e79 af3c 2916 08bb 32c2 d7bc
00000390: 3173 66bc 6886 56bb 4118 cd3c e8ff d63b
000003a0: e35f 423d 4fd7 e53b 9018 013c 399e 5ebd
000003b0: 333d 54bb 8c1e 84ba 8ac0 293d b528 663c
000003c0: cffd f7bc 24e4 80bd f758 bc3c c662 cfbc
000003d0: 27fb b03c 353b 6dbd 4919 513d 73b8 0f3d
000003e0: e113 693a 2542 7fbc 5aa5 2fbc 0d82 733c
000003f0: 468f 0cbd eaf6 0e3d 9000 abba 4d29 393c
0.0016396814 -0.015846845 0.015157654 -0.047008988 0.0058185738 0.036392923 -0.0040729395 0.035283305
-0.0031372486 -0.024973454 0.016838463 0.04128128 -0.031673167 0.017395023 0.041005492 0.024880078
-0.044059638 0.005098849 0.051714793 0.020901678 0.06350389 -0.019115709 0.058048073 0.006404264
0.027091585 0.010055033 0.030882025 -0.007917322 0.03271266 0.035888575 -0.0849415 0.072370894
0.0016180624 0.00022047955 0.0029571918 0.00032142794 0.014150601 -0.090353355 0.036550444 -0.005867557
-0.038669623 0.049479842 -0.010107829 -0.04315183 -0.030825041 -0.07362636 0.020468907 -0.10393949
-0.04777767 -0.043052964 0.033068754 -0.05306445 0.052871127 0.03721425 -0.006511591 0.0790404
-0.005219736 -0.0069552865 -0.07485402 -0.0010877739 0.019208753 0.04706963 -0.041993644 -0.026286196
0.045765866 0.0044005644 0.06902013 -0.07933465 -0.003164552 -0.025758177 0.011374691 0.032528706
-0.03569286 -0.08630814 0.023243856 0.023853106 0.0024824445 -0.022061491 -0.018343596 0.06556073
-0.010785422 0.0037431952 0.027306402 -0.007921043 -0.012686925 -0.0062468415 0.0005447133 0.014745369
-0.018339815 -0.023475641 -0.027315583 0.01735045 0.02014501 -0.028915018 -0.0013900761 0.0029459936
-0.016121915 0.045314904 0.01954394 0.029141001 0.016768124 -0.02485049 0.0032744822 0.024777293
0.026675748 -0.02339104 -0.017180102 0.003036321 -0.030905392 0.031124303 0.021805966 0.039350577
-0.003525136 0.0231678 -0.020800777 -0.0009258607 -0.050793186 0.050223578 0.0045857006 0.033130594
-0.023985833 -0.018685278 0.04702435 -0.052067522 -0.03017914 0.035330713 -0.021386784 -0.064714774
0.026118942 0.03245686 -0.07165991 0.06812184 -0.009108591 -0.007403331 -0.084006466 0.016231408
-0.06294843 -0.00887433 -0.015579676 0.017320361 0.03204726 -0.009238858 0.028652985 0.0014283884
-0.041090906 -0.047975533 0.00713752 0.00470988 0.014980378 -0.035004634 -0.015611069 0.013185307
-0.014831344 -0.010663796 0.038537346 -0.05515792 0.036638424 0.0053235334 0.008292679 -0.010861703
-0.038674004 0.053415075 0.012127239 0.006591858 0.019211972 0.0051162075 0.0014521495 -0.015597523
-0.043602817 -0.00031859134 0.0294451 -0.04901416 0.057357494 0.029020503 0.020600181 0.033254955
-0.018099984 0.003674339 -0.097769864 0.00889748 0.013109824 0.010426355 0.02926 -0.041337762
-0.024724763 -0.044525594 -0.05678424 0.017982718 0.0077203093 0.03743774 -0.012185982 -0.010064932
0.07345083 0.041559402 0.06680348 -0.045601856 -0.026132597 -0.015361078 -0.051920503 -0.016386831
0.00079060486 0.02759561 -0.007068272 0.028650105 0.03918902 -0.034398124 -0.05326608 -0.04345872
0.012648406 0.004764841 0.017571172 -0.026708605 0.024542002 0.0019222625 0.039553147 -0.06214148
-0.056610495 -0.0135876015 -0.020571131 -0.010498918 -0.0063682934 0.025007203 0.038325764 -0.0569394
0.008060979 0.021420088 -0.0020765162 -0.026337717 -0.01406555 -0.003273392 0.02503598 0.006561268
0.047454726 0.007014192 0.007879391 -0.05435011 -0.003238511 -0.0010079904 0.041443385 0.014047791
-0.030272393 -0.06293514 0.02299164 -0.025315654 0.021604134 -0.057917792 0.051049504 0.035088014
0.0008891207 -0.015579735 -0.010720575 0.0148625495 -0.034316324 0.034903444 -0.0013046432 0.011301351

conv1.bias f4 [128]
00000000: 9669 73bc 20f1 aebc d742 1abd 0ffe 333d
00000010: a0c8 1c3d ca10 16bc 4621 0bbd 48f9 62bd
00000020: bcfc 3dbc a403 c9bb 1ed8 0c3d 160d 62bc
00000030: a8d0 95bc 4e73 90bb f722 0a3b 5a0b df3c
00000040: 92d0 9cbc d3e1 a2bc bbd3 03bd 7033 813a
00000050: 3b95 a13c 925c 80bc 59a2 a3bc 32d3 173d
00000060: f156 3c3c 1a49 103d 374d 03bd d906 cf3b
00000070: a16a 293c 5db7 a2bc 2ee2 003d 07fc 30bb
00000080: dd46 1ebd 118a 05bd 816e 62bc 92fc 2fbd
00000090: c73d 303d 8195 343c f853 15bc 7153 8a3c
000000a0: cebd 29bc dd90 433d 6f3e 2abc db7d 86ba
000000b0: cfba 8e3c 47eb ccbc a6d4 9cbc 74d8 95b8
000000c0: 39c2 de3c 77d3 4d3c 6baa eebc a81e 1339
000000d0: b864 5c3b eaae 3dbd 85a1 d5bc c36d 03bd
000000e0: d0d5 b7bb 56aa 1dbc c22d 5ebc 3044 25bd
000000f0: 5c5a c3bc d600 c1bb 6863 86bb 1a80 dd3b
00000100: 2950 373c 2c28 a03c 7a7b 48bc 8e72 eaba
00000110: e8fc 243d 1e76 b9bc 73a8 0abd e999 f53c
00000120: 1ce8 00bd fc9f 4bbc a4ba 92ba 47db 133c
00000130: a502 283c 0546 7fbc d4de 043d 0087 873c
00000140: f6a4 523c 1f31 4dbb e6cc 52bc 513c 0a3d
00000150: 26a0 9bbc 6651 f03c e983 983b aef9 8a3d
00000160: 8803 3ebd d8af 83bc 8231 9a3a 2b2d d5bc
00000170: b1c2 d1bc 6cdc deba 6a8b 3a3c 58a8 e2bb
00000180: 8975 8cbc 720b c9bc ca2d 333d 287a 3b3c
00000190: d855 0abb fe9c 16bb 2343 f53c 7ac6 ed3c
000001a0: 19f0 09bc ba2c 4b3b d927 263c a737 a1bb
000001b0: 2fbc 5dbc f3d0 0b3c 9950 fd3c 9444 60bc
000001c0: 0e74 10bd bfdf 523b 7b76 4fbc 4875 1d3c
000001d0: 2212 2e3d ead6 f9bc cc50 a4bc addc ab3c
000001e0: 665d cbba 3f6c d1bb b0a2 5e3c d57e b63b
000001f0: cb8d 1dbc 0694 2ebc e0ec c13c 7dda 1c3c
-0.014856717 -0.021355212 -0.0376614 0.04394346 0.03827727 -0.009159276 -0.03396728 -0.055413514
-0.011595901 -0.006134467 0.034385793 -0.013797065 -0.018287972 -0.0044082766 0.002107797 0.027227093
-0.019142423 -0.019883072 -0.032184344 0.0009857249 0.019724479 -0.015669141 -0.019974874 0.037066646
0.011495338 0.035225965 -0.03205606 0.006317955 0.010340364 -0.019862825 0.0314657 -0.0027005689
-0.0386418 -0.032602374 -0.0138202915 -0.04296548 0.043027665 0.011021973 -0.009114258 0.016885491
-0.010360194 0.047745574 -0.010390862 -0.0010260897 0.017423062 -0.025014533 -0.019144367 -7.145191e-05
0.027192222 0.012562624 -0.029133996 0.00014030433 0.003362937 -0.04630939 -0.026077995 -0.0320871
-0.0056102052 -0.009623131 -0.013560714 -0.04034823 -0.023846798 -0.005889992 -0.0041012056 0.0067596557
0.011188545 0.019550405 -0.01223647 -0.0017886923 0.040280253 -0.02263933 -0.033852052 0.029980617
-0.031471357 -0.01242828 -0.0011194539 0.009024448 0.010254537 -0.015580659 0.032439068 0.016543865
0.012856713 -0.0031309796 -0.012866234 0.03374893 -0.018997263 0.029335689 0.004654397 0.06785904
-0.046390086 -0.01607506 0.0011764022 -0.026022514 -0.025605531 -0.0017002947 0.011385778 -0.006917041
-0.017145889 -0.02454159 0.04374484 0.011442699 -0.0021108296 -0.0022981758 0.02993924 0.029025305
-0.00841906 0.0031002 0.010141336 -0.0049199644 -0.013533636 0.008533704 0.030922221 -0.013688225
-0.03526693 0.003217682 -0.012662525 0.009610482 0.04249776 -0.030497987 -0.020058058 0.02097925
-0.0015515506 -0.006391078 0.013588592 0.005569319 -0.009616326 -0.010655409 0.023672521 0.009573576

conv2.weight f4 [128, 128, 3, 1]
00000000: 4c23 f73c a394 e1bb 44cd d23c 5858 22bd
00000010: d273 1ebd 56fb 23bd fcb0 f33b 0dc1 f7bc
00000020: 370a 20bd 8ba2 2e3d f490 0dbd 2d47 94bb
00000030: 883e d5bb eeff 1abd 0a07 30bd fc62 c33c
00000040: 04db 14bd efe9 253d 2455 15bc 75ce 1abd
00000050: 1c99 a13c 6a1a 51bc 900a ce3c 5359 61bd
00000060: e2a5 88bc fbca f13c 1086 ff3c e4b7 e3bc
00000070: 1251 13ba 9def f33a 2384 3e3d 43b6 a1bb
00000080: 04da f73c 0e86 77bc 4a16 d13c fd18 073d
00000090: 3f61 9b3c 695f d1bc 2eef efbc a571 c5bc
000000a0: 1f7a 4a3a decd 193d e703 0bbb 39fa e7bc
000000b0: f053 a93c 9296 033d b01d a0bc 9e8d 99bb
000000c0: ebc1 e13c 9376 27bd 7fec aabc b189 2ebd
000000d0: ae25 4b3c b704 50bc 8488 64bd 43ff 32bd
000000e0: ebb0 c13c 67d8 72bd c7c4 12bc c21a e63b
000000f0: 2512 3e3a 080f 223c 1f7e e53c f20c 17bc
00000100: e96a 5bbd fdc9 35bd 3d8b 05bd 85d5 97bc
00000110: 5673 c6bb 0d8f fc3b 1ddc 0ebd 329f 423d
00000120: 1f4b 303d 6fe0 1f3d 3f93 453c d719 753b
00000130: fdf9 eaba 6475 923c ee98 52bb 9304 52bc
00000140: a603 33bc ad2e 003c fffa e43a a4b5 8dbc
00000150: 66c3 a33c f58e 77bd ae04 75bc 2838 08bd
00000160: 317b 4dbc 3778 b8bc 4c90 ebba 06d7 bdbc
00000170: 6356 97bc 7ecf f0bc cb87 0dbd 6b9c 39bd
00000180: 3f65 25bd c11f 673c 45d9 cebc 2d07 1c3c
00000190: 3bee 3bbd 4900 c4bb 5aca da3c c7b3 5ebc
000001a0: a08b a7bc 8344 243d b4b0 ad3a e1e6 6bbc
000001b0: aa06 04bd a819 173d f447 283c 6b61 04bc
000001c0: b8ed 383c e4ab 4b3c 3b81 383a 22e0 f7ba
000001d0: e55d cf3c b8f9 a6bc b99b a73c 0fb6 0ebd
000001e0: d3fa 423c 6f45 6ebd fbf3 163d 127a d23c
000001f0: 7f64 083d 6576 60bc f8f8 59bd ed56 353d
00000200: 6d43 1e3c 1626 52bd 3e11 d23b cd0b e43c
00000210: fbb1 b33b b416 d63c a7ca 2bbd 60b4 093c
00000220: 4365 c23c 7b8c 9ebc 8e89 35bd 7dd0 02bd
00000230: bbf1 60bd 7b6d 3f3d 45df 99bc 1db6 413b
00000240: 12b6 01bd 292d 40bd 7ab1 c7ba b7c3 60bd
00000250: b2e8 0f3d 49d3 6c3c df9f c73c 6009 303c
00000260: 874a 513c 63c3 4638 8d7d 74bd 2e5a 6cbc
00000270: bca2 6fbd 640b 073d e738 4dbc b6ba 03bb
00000280: 845f 653b 4cc3 5dbd 9826 273d b63a 39bc
00000290: 7f11 6ebc a518 3dbd 9716 a63c 4345 9d3c
000002a0: e69f d4ba 15f0 6c3c e239 6abd d386 063d
000002b0: 8138 41bc 350b 2a3d 226f 8f3b ae7e 653c
000002c0: b3dd cb39 ae74 2abd 3a80 1a3b b683 083c
000002d0: 40e9 903c 4330 2cbd 2aff 41bd f083 f43c
000002e0: 3031 23bd 3337 373d 4c8b 333d 907d 7a3c
000002f0: 9158 3f3c e48b 34bd ef93 a23c 1b2e ef3c
00000300: 322d 1fbc ee39 323d 4c71 10bc b046 f53c
00000310: 6160 053d 9916 e63c 02c1 843c 9e20 47bd
00000320: abad 40bc 4124 183c 5787 fbbc f2cb 203d
00000330: 7a4d d3bc 65e0 1cbd a764 7bbc e43a 00bd
00000340: a3a9 143d 84ac e53b a509 5d3c 3970 443c
00000350: c717 ebbc 3c98 13bd d002 8e3c 2be8 63bc
00000360: 0169 db3c 8288 143b 505c 03bd 22d6 9235
00000370: 0dcb b53c 8f38 9abc 737d 3a3d 9bbe 5a3c
00000380: e45d 64bd 4d16 b8bc 969c b03c 537a ffba
00000390: 064b 243d 9d81 073d 4271 57bd 03ab 293c
000003a0: a3fa 2d3d 25cd fbbc b454 8bbc 2f58 3dbd
000003b0: 31ca 26bd fe82 933b 7f82 17bd 7ef3 403b
000003c0: bfff f4ba 8de5 10bc ac92 013d bed0 293d
000003d0: 5133 a63c 3fc7 a73c 7994 983b a1ab 793c
000003e0: baaf 32ba 92eb 6a3c c7f8 eabc 7fe6 fb3b
000003f0: bcb0 d3bb d702 053d 16be 8a3c 3dc0 a53b
0.030168198 -0.006884174 0.025732644 -0.039635032 -0.038684674 -0.040034615 0.0074368697 -0.030243421
-0.03907224 0.04263548 -0.034562066 -0.0045250864 -0.0065076984 -0.03784173 -0.042975463 0.02385091
-0.036341682 0.0405063 -0.009114537 -0.03779455 0.019726329 -0.012762645 0.025151521 -0.055016827
-0.016680662 0.029515734 0.031191856 -0.027797647 -0.00056196854 0.0018610839 0.046512734 -0.0049350574
0.030255325 -0.015107645 0.025523324 0.032982815 0.018967269 -0.02555819 -0.029288854 -0.024102041
0.0007723886 0.037549846 -0.0021212043 -0.028317558 0.020669907 0.032126017 -0.019545406 -0.0046860715
0.027558288 -0.040884566 -0.020864723 -0.04261178 0.01239912 -0.012696437 -0.055794254 -0.043700468
0.023643931 -0.05928841 -0.008958048 0.0070222327 0.00072506286 0.009891279 0.02801424 -0.009219395
-0.053568754 -0.044382084 -0.03260349 -0.018534431 -0.0060562296 0.0077074827 -0.034877885 0.0475151
0.04304039 0.039032396 0.012059032 0.0037399435 -0.0017927286 0.017878242 -0.003213461 -0.012818473
-0.010926163 0.007823628 0.0017469822 -0.017298527 0.019990634 -0.06043907 -0.014954729 -0.03325668
-0.012541578 -0.02251826 -0.0017972081 -0.02317382 -0.01847381 -0.029395815 -0.03455333 -0.045315187
-0.04037976 0.014106692 -0.025250087 0.009523195 -0.04588149 -0.0059814793 0.026707817 -0.013592667
-0.02045232 0.0401044 0.0013251514 -0.014398308 -0.032232918 0.036889702 0.010271061 -0.008079867
0.011287145 0.012431119 0.00070383 -0.0018911401 0.025313327 -0.020382747 0.020459997 -0.034841593
0.0119006215 -0.058171686 0.03685377 0.025692973 0.033298966 -0.013700102 -0.05321595 0.044272352
0.00965963 -0.051305853 0.006410747 0.027837658 0.0054838634 0.026133873 -0.04194131 0.008404821
0.023729926 -0.019354096 -0.044320635 -0.03193711 -0.054918032 0.046735268 -0.018783221 0.002955801
-0.031667776 -0.046918068 -0.0015235387 -0.05487415 0.035134025 0.014454671 0.024368225 0.010744423
0.012774116 4.7388847e-05 -0.059690047 -0.014425797 -0.058504805 0.032969847 -0.012525774 -0.0020100302
0.0034999559 -0.054141328 0.04080829 -0.011305502 -0.014530539 -0.04616608 0.020274444 0.019198066
-0.001622197 0.014461537 -0.057184108 0.032843422 -0.011793257 0.041514594 0.0043772617 0.014007254
0.00038884356 -0.04161518 0.0023574964 0.008332184 0.017689347 -0.042038213 -0.047362484 0.029848069
-0.03984183 0.044730376 0.043834016 0.0152887255 0.011678831 -0.044078723 0.01984593 0.02919679
-0.009715365 0.043512277 -0.008816075 0.029940933 0.032562617 0.028086947 0.016205315 -0.04861509
-0.011760156 0.009285987 -0.030704184 0.039256997 -0.02579378 -0.038299937 -0.015343822 -0.031306162
0.03629459 0.007009091 0.013491069 0.011989647 -0.028697861 -0.036033854 0.017335325 -0.013910334
0.026783468 0.0022664373 -0.032070458 1.0940169e-06 0.022191549 -0.018825797 0.045529794 0.013351108
-0.055753604 -0.022471571 0.021559041 -0.0019491412 0.04011061 0.033082593 -0.052598245 0.010355714
0.042475354 -0.030737469 -0.017008163 -0.046226677 -0.04072017 0.0045016995 -0.036989685 0.0029442008
-0.0018691941 -0.008843792 0.031634018 0.041458838 0.020288141 0.02048075 0.004656371 0.015238673
-0.00068163464 0.014338391 -0.02868308 0.0076873894 -0.0064602774 0.03247341 0.016936343 0.005058317

conv2.bias f4 [128]
00000000: f766 93bc 031f 66bc acf9 35bc 3bd4 d03c
00000010: b1c3 f2bb 55ec da3c b662 613c d67d 0dbb
00000020: c5cc 2c3b c8ec 4cbd c1d9 a3bc 7087 0fbd
00000030: cff1 723c db9f 81bd e2d0 b4bc d8e0 65bc
00000040: 0318 edbc f2c1 28bb 3d16 dabc f549 643c
00000050: 579c 3a3d d116 83bd a628 0e3d 0a1b c4b9
00000060: 95ae 10bd 2b83 133c b6ac 7cbc 4cd5 52bd
00000070: d4b7 36bd fee3 703c c997 383c 3915 91bb
00000080: 5886 39bb 9061 463c 39df 85bc bcfc 3dbd
00000090: 1dc1 63bd b251 b33c fe46 8f3b 9d57 e73b
000000a0: 3fb1 cebc 1268 81bd fc22 d83c c13f 28bc
000000b0: bf93 653c 019a ea3c 96d6 243d fb2d 1ebc
000000c0: 5569 8f3c 763c b33b 328d 9e3c 3a1d 4cbd
000000d0: 2bb0 983d eff7 10bd 7cb5 723d 30c7 0fbb
000000e0: 7f06 23bc ede9 4e3d 7b34 80bc 072b 2bbd
000000f0: 71ad a5bc fd55 61bd 85a3 30bb aacb 1cbd
00000100: ee20 13bb 48fd 38bc 7ed5 4fbc 9e33 a4bc
00000110: 1a02 913d ff3e ac3c ccc7 4b3c 1c04 433d
00000120: 42be e3bc ae1a 1cbd c97e 1bbd c3fa 7abb
00000130: b216 63bd 745e 213d 97a2 2cbd 5186 983c
00000140: 4c18 563d 2ee3 813b 694e 253d c83f f23c
00000150: 67a9 823c 30f5 7e3c 33c2 4dbd ac41 943c
00000160: 8d14 5bbd 0e72 3fbd 16f9 0dbd dd7d 6bbd
00000170: d758 5bbb 659b f0bc 8f0d 4d3c eea2 f6bc
00000180: 5b94 5abd 4651 55bc 2d6d 943c a8ee 343c
00000190: 0927 103d 9db3 e83b 394a 9b3b d1b6 ab3c
000001a0: e35a 4fbc 04cd ef3c 62a9 64bd 6c9e 3b3c
000001b0: 2884 14b8 0ac7 16bd fc5e 7d3c 73ea edbb
000001c0: 8ed4 3e3b 12c4 51bc e1f3 77bc 2c52 5cbb
000001d0: 15b3 853d 8a05 913d 19be 5dbd e841 f9bc
000001e0: c864 883b 853f 28bd 978b 52bd 9b02 dc3b
000001f0: 7902 293d 3ea3 5e3c ffd3 873c 35d0 0ebd
-0.017993433 -0.01404548 -0.01110689 0.025491824 -0.007408582 0.02672402 0.013756445 -0.0021589897
0.002636717 -0.0500305 -0.020001294 -0.035041273 0.0148281595 -0.06329318 -0.02207226 -0.014030658
-0.028942114 -0.0025750366 -0.026621932 0.013933648 0.045559254 -0.06400836 0.034706734 -0.0003740418
-0.035322744 0.009003441 -0.015422037 -0.051472947 -0.044608906 0.014702795 0.011266657 -0.0044275788
-0.0028308835 0.012108222 -0.016341792 -0.046383604 -0.05560409 0.021889541 0.0043724766 0.007060005
-0.025231002 -0.06318678 0.02638387 -0.010269106 0.014012276 0.028637888 0.040243708 -0.009654517
0.01750628 0.005469854 0.019354437 -0.04983256 0.074554764 -0.035392698 0.05925511 -0.0021938793
-0.009950279 0.050516058 -0.015650025 -0.04178908 -0.020224305 -0.055013645 -0.0026952934 -0.038280167
-0.0022450048 -0.011290856 -0.012685178 -0.020044144 0.07080479 0.021026133 0.012437772 0.04761134
-0.027800683 -0.03811138 -0.03796271 -0.0038296438 -0.055441566 0.03939672 -0.042147245 0.018618735
0.052269265 0.0039638495 0.04035798 0.029571429 0.015949918 0.015561387 -0.05023403 0.018097721
-0.053486396 -0.04673963 -0.034661375 -0.05749308 -0.00334697 -0.029370973 0.01251544 -0.030106988
-0.05336414 -0.013019865 0.018118465 0.011043228 0.035193477 0.0071014897 0.0047390726 0.020961197
-0.012655946 0.029272564 -0.0558256 0.011451345 -3.540903e-05 -0.036810912 0.015464541 -0.0072606145
0.0029118392 -0.012803094 -0.015133829 -0.0033618314 0.06528298 0.070811346 -0.05413637 -0.030426934
0.0041624047 -0.041076202 -0.051402654 0.006714178 0.041262124 0.013588725 0.01658058 -0.03486653

fc1.weight f4 [64, 128]
00000000: 41e7 b43d d834 6bbc 18b9 a7bd 5046 7abd
00000010: 52c7 3d3d 755a 08bd 7687 363d 05bc a2bd
00000020: 00c6 20bc fd25 a93d c837 2b3c f4e8 b9bc
00000030: da17 223d 9a03 343d d0bf e33b d5fd 34bd
00000040: 9e37 7a3d 88b4 653c 01da 9bbd 7f9a 06bd
00000050: bc8f 41bd 0e21 203d 20cf 823c 9866 5e3c
00000060: aeeb 3e3d 307a 97bd ec10 b3bc b4f7 89bd
00000070: 388d 2fbd 748a 81bc 98db 7b3c 6057 863c
00000080: 3b61 06bd 0878 cabc 0cf9 61bd 2ee3 293d
00000090: a8fb 66bc c4e8 80bd 3b71 a3bd 481c 67bc
000000a0: 9f55 53bd 84cb db3c b67c 453d 3108 34bd
000000b0: 88ef 253c 44da 39bd aae5 85bd 21c9 ae3d
000000c0: 5061 42bc 4af6 523d 4e0a 1e3d 4095 d13a
000000d0: 38b4 98bc c852 133c a6b9 3c3d 3efd 463d
000000e0: a49c f63c 3afb 5d3d 3019 a9bd 79d7 54bd
000000f0: d0e6 14bd d8d8 113c cbea ad3d f183 933d
00000100: d105 89bd 4c1e d2bc fc27 cdbc 604b 253c
00000110: 9259 013d f88c 7b3c 505e bcbb 6aba 683d
00000120: 80e2 f4bb ee09 8cbd 0db4 a53d 77a6 92bd
00000130: ff97 873d 39ae afbd 845a d23c 605b 87bd
00000140: 0eb6 afbd 4c27 79bd 4a06 52bd 5c4b bfbc
00000150: 9058 96bd 1c7a 8e3c 38d4 9abd 6210 8abd
00000160: c20a 6b3d 0a84 203d c031 40bb e31c a43d
00000170: c0eb f1bb 30c3 503c a83a 33bd 1e10 173d
00000180: 6832 823c 46d5 3c3d b00b 8cbc eac0 333d
00000190: 1ab7 9cbd c003 b3bb 808a 9cbc e6d8 32bd
000001a0: 605c 8bbd e61f 643d 1e0f 3a3d 6a1d 453d
000001b0: 52a3 52bd 3614 483d 00e1 013c 808c feba
000001c0: 442a 7cbd f4b4 83bd 4a2f a1bd 0883 6ebd
000001d0: bb12 02bd c1a0 86bd 8743 6cbd 4afb 623d
000001e0: 8022 a7bc 3ead 753d f4cf 89bd d4df d23c
000001f0: 80c3 843b acf2 8ebd 944d 9ebd 8093 86bd
00000200: e797 543d cd39 3fbd 2725 de3d 26ab 3fbd
00000210: 6a38 693c 6586 d2bc 3a0b bcbd a303 a73d
00000220: a05d 22bd f63a c73c f303 693d e63d 043d
00000230: 9679 883d 37d6 d13d 5753 6e3d 2b5a ab3c
00000240: 00bf 19bd 8f4e c0bd 8c2d e93c 2ff2 3ebd
00000250: 2af5 79ba 5e24 4d3d 1890 18bc bbe3 59bd
00000260: 2030 003e 970d 873b e3bc e83c d843 b2bd
00000270: cc63 133e b258 8e3d 391e 83bd 1ee4 dd3d
00000280: 9f89 cf3d 7d12 813d a514 53bd 4306 82bd
00000290: 45c1 63bd 6848 a13d 75b8 39bc cbea 82bd
000002a0: 846a 023d 193a ca3d 3b81 0dbd ea4a bf3d
000002b0: 74e6 073d 4a90 7cbc 6075 d53d bc9a 813d
000002c0: 34ce 94bd 0777 04bd f592 a93d 5cd8 d43c
000002d0: 9852 173d 783e 36bd 7cb1 2abd 243a 4abd
000002e0: 39bb e13d 9bfb 743c aa5a 0dbc 8239 babc
000002f0: cd8a 253b 499b 193c 6194 a33d 9877 8bbd
00000300: 8c5f aabd a4d0 503d 58df f5bb 50b0 ed3d
00000310: e957 573d 14f2 223d fa0a 0c3d 0096 5abd
00000320: 6b9b 87bc 0781 a3bd 3027 0bb9 655c 79bc
00000330: 49fb 143d a2bc a93b 3b2c ca3c 9704 04bd
00000340: 65c1 0ebd 407d 90bd ce52 9cbd d9f9 0c3d
00000350: 9d8c 843d 59b5 eb3d 556b 3d3d ee70 553d
00000360: 563a 27bd f30f 623d 5e1b 6a3d 8df5 e7bc
00000370: 135c 91bc 97fa ae3d 4dbe 92bc babd b8bd
00000380: a368 213d 5446 adbb 0850 52bd e65f 563d
00000390: 1baf a13c a051 c0bc baaf df3b 9cdc d6bc
000003a0: 9fab 1cbd 2120 603d c333 a63d bd99 8f3d
000003b0: 72c6 803d a876 33bd 87da c33d be41 9cbc
000003c0: 3a1f 8e3d 8bbf 483d 556e 463d c0a4 73bd
000003d0: 3b55 263d 97ef 083d 00f4 2f3d 687e 0d3d
000003e0: ab10 023d 73f2 a23d 6b7d e8bc 9cbd 503d
000003f0: 2aea dd3d a2d7 9cbd 4b32 de3c ebf4 2cbc
0.08833171 -0.014355861 -0.08189601 -0.06110221 0.046332665 -0.03328939 0.04456278 -0.07946018
-0.009812832 0.08259199 0.010450311 -0.022694089 0.039573528 0.043948747 0.006950356 -0.044187386
0.061088197 0.014020093 -0.0760994 -0.032862183 -0.047256216 0.039094023 0.015967906 0.013574265
0.04661148 -0.07396352 -0.021858655 -0.06736699 -0.042859286 -0.01581309 0.015372179 0.016399086
-0.03280757 -0.024715438 -0.05516915 0.04147642 -0.014098085 -0.062943965 -0.079805814 -0.014105864
-0.051595327 0.026830442 0.048214637 -0.043953124 0.0101279095 -0.04537417 -0.065379456 0.08534456
-0.011864021 0.05150441 0.038584046 0.0015989915 -0.018640622 0.008991905 0.046075486 0.048581354
0.030103989 0.054194666 -0.08256757 -0.051963303 -0.036352932 0.008901797 0.08492049 0.072029
-0.066905625 -0.025649212 -0.02504348 0.010088772 0.03157956 0.015353434 -0.0057485476 0.056818403
-0.00747329 -0.068378314 0.080909826 -0.07160657 0.06620788 -0.08578152 0.025677927 -0.06609225
-0.08579646 -0.060828492 -0.05127553 -0.023351364 -0.07341111 0.01739221 -0.07560009 -0.06741406
0.057383306 0.039188422 -0.0029326528 0.08013322 -0.00738284 0.012741849 -0.04375711 0.036880605
0.015893176 0.04610183 -0.017095417 0.04388515 -0.07652111 -0.0054630935 -0.01910901 -0.04366388
-0.068047285 0.055694483 0.045424573 0.048123755 -0.051425286 0.0488474 0.007927179 -0.0019420534
-0.061563745 -0.064309984 -0.07870348 -0.05823043 -0.031756144 -0.0657363 -0.057681587 0.05541543
-0.020402193 0.05997967 -0.06729117 0.025741495 0.0040516257 -0.0697988 -0.077296406 -0.06571102
0.051902678 -0.046685982 0.1084693 -0.04679408 0.014234642 -0.02569885 -0.09181829 0.081549905
-0.03964007 0.024320107 0.056888532 0.032285593 0.06663816 0.10245936 0.058184948 0.020917019
-0.037535667 -0.09389984 0.028464101 -0.046617683 -0.00095351285 0.05008351 -0.009311698 -0.053195696
0.12518358 0.004121493 0.02841038 -0.087043464 0.14393538 0.06950511 -0.06402249 0.108345255
0.10133671 0.063023545 -0.05153336 -0.063488506 -0.055604238 0.078751385 -0.011335482 -0.063924395
0.031839862 0.098743625 -0.034547072 0.093404606 0.03317876 -0.015415261 0.10422778 0.06328341
-0.072658926 -0.032340076 0.08279983 0.025982074 0.036944002 -0.04449317 -0.04167317 -0.049371853
0.11022038 0.014952566 -0.008627573 -0.0227325 0.0025259734 0.009375402 0.079872854 -0.0680992
-0.08319005 0.050980225 -0.0075034313 0.116058946 0.052574072 0.039781645 0.034190156 -0.053365707
-0.016553601 -0.079835944 -0.00013270671 -0.0152197825 0.036372457 0.0051799575 0.024679294 -0.03223094
-0.034852404 -0.070551395 -0.07632981 0.03441796 0.06472132 0.11509199 0.046244938 0.05210965
-0.040827118 0.05519099 0.057155006 -0.02831533 -0.0177441 0.0854389 -0.017913008 -0.090205625
0.03940643 -0.005287925 -0.051345855 0.05233755 0.019736817 -0.023476422 0.006826368 -0.026228242
-0.038249608 0.05471814 0.081153415 0.07011745 0.062878504 -0.04381433 0.09563165 -0.019074317
0.0693955 0.049010795 0.048445065 -0.05948329 0.040608626 0.033431616 0.042957306 0.03454438
0.031754177 0.079564 -0.028380116 0.050962076 0.10835679 -0.07658316 0.02712359 -0.01055644

fc1.bias f4 [64]
00000000: f870 4ebc 11be 9a3d 7642 73bc 7a63 bc3d
00000010: b8de a4bd 76ce 333d 7fd7 29bc 052a 5c3d
00000020: 593e 573d 324e 7ebd b392 763d c806 9d3c
00000030: 9e8b 943d e0a2 0f3b c46c 0f3d 1f8f 75bd
00000040: fb6c a03a 1566 583c e65f 133d d379 aabd
00000050: 32ac a03d 622a 78bd 744d 6bbd 1817 ec3c
00000060: 9a3b aabd ffa5 20bd bdd7 2ebd 8ed8 713d
00000070: b009 d13b 20ac c4bd 557f 53bd 611f 81bd
00000080: 5401 7a3d 067e aa3c 2791 f5bc b313 8f3c
00000090: e0ee 82bb 99be 7e3d 3052 bfbd d518 203d
000000a0: 9199 34bd 6d28 283d 2efd a2bc dd0c 953c
000000b0: 999c 3abc fed3 aebd 01ce b1bd 6dbc 923d
000000c0: 23c6 85bd cefa 0e3d 18ee 413d 943f 293d
000000d0: bc2b 1abc f200 32bd b83b bfbd 43d9 563d
000000e0: ed76 473c 3f33 babd f956 8039 e503 82bd
000000f0: c0f3 8cbc 5305 81bc e4f9 8bbc 7b5a a2bd
-0.012600176 0.075557835 -0.0148473885 0.09198661 -0.08050293 0.04389807 -0.01036632 0.05375101
0.052549694 -0.06208629 0.060198497 0.019168273 0.07253192 0.002191715 0.035015836 -0.059950944
0.001223951 0.013207932 0.035980128 -0.083240174 0.07845344 -0.060587294 -0.057446912 0.028819606
-0.08312149 -0.039220806 -0.042686213 0.059044413 0.0063793287 -0.09603143 -0.051635105 -0.06304813
0.061036423 0.020812046 -0.02997644 0.017465448 -0.0039957613 0.062193487 -0.09341848 0.03908618
-0.044091765 0.041054178 -0.019896116 0.01819461 -0.011389875 -0.08536528 -0.0868187 0.071648456
-0.06531932 0.034907155 0.047346205 0.0413204 -0.009409841 -0.043457933 -0.09337562 0.05245329
0.01217435 -0.09091806 0.00024478862 -0.06348399 -0.017206073 -0.01574961 -0.01708693 -0.07927414

fc2.weight f4 [2, 64]
00000000: 66c5 c33d 71e7 ca3d 10f8 cf3d 432a febd
00000010: c82b 68bd b194 953b aa0a 12be f356 f6bd
00000020: 7b52 efbd a2a7 92bd 989d fbbd 7a89 6cbd
00000030: 01be 173e 3973 f93b 11a9 e8bd 3602 a4bd
00000040: 6fa4 b1bb 8718 86bd 9f5e fabd 5689 ccbd
00000050: 407d 743d 9431 e6bd b605 e7bd f0d2 5cbd
00000060: 6c4b a93d a10b 013e b438 5fbd 9f6c 99bd
00000070: 77d0 d53d 3c4d 213d d13e f8bc 421c ff3b
00000080: 9cfd 0c3d 04b6 133e 82d6 cebd 7fe2 bc3d
00000090: 4c8c a4bd 5464 02be dae0 ec3d e13d d63d
000000a0: 7c41 733d ee5b c0bd cf56 32be ff66 10bd
000000b0: bacc dbbd a098 dfbb 807e ee3d 6037 9ebd
000000c0: 1b31 dcbd e8e1 83bc 1be8 983d 74fd 2d3d
000000d0: 618e a93d 43ed 25bd f53a a73d 32f2 df3d
000000e0: b05c 48bd 3ccf a1ba 8938 823c 8201 0d3e
000000f0: d749 e83d a23f bdbd 3096 6f3c f7bf 203e
00000100: 928e ea3d 10a4 11be 0953 54bd 9bb2 f3bb
00000110: ca91 8cbd 689f bb3d 7c7a 31bd d55a a93d
00000120: 90df a5bd 20f8 cd3c 27aa b1bc 0cf7 d33d
00000130: 8027 a4bd e844 a6bd fa08 dbbd 4ce1 873d
00000140: 05c3 1f3e 230b 89bd eda5 cbbd b93e f4bd
00000150: aa2c 4fbd 2e95 fbbd 187c a3bd b0dc df3d
00000160: ae87 843d d3c5 98bd ea32 c03d 2efd 8d3d
00000170: 432a ea3d 2cdd 00be 151d dd3c f194 02be
00000180: bad7 ac3d dac2 23bc d36e d3bd bd71 b73d
00000190: a002 a43b 6cf8 0f3b 74eb 11be 98b2 02bd
000001a0: 9de0 d9bb 07e4 ef3c 5363 1d3d abd9 243a
000001b0: e50b d33c fe48 bfbd e6f8 31bd 4c9a 383e
000001c0: d7fa 52bd 6efe e0bd a870 95ba 4f73 3a3e
000001d0: 939e bebd 9b2a 0abe 2937 ae3d 9470 803d
000001e0: 703d 49bc 595a 313c 2d2b 4ebc 35e6 4a3c
000001f0: 2c7e 2e3c 5373 af3d 5444 81bd d4ee d1bd
0.09559135 0.09907425 0.10154736 -0.124104045 -0.056682378 0.0045648445 -0.1426188 -0.12028303
-0.11685654 -0.0716088 -0.12285918 -0.057748295 0.14818574 0.0076126126 -0.11360372 -0.08008234
-0.0054212133 -0.06547647 -0.12225079 -0.09987132 0.05968976 -0.11239925 -0.11280386 -0.053912103
0.08266339 0.12602092 -0.054497436 -0.07491421 0.10440152 0.039380297 -0.03030339 0.007785351
0.03442155 0.14424902 -0.10099508 0.09222888 -0.08034572 -0.12733585 0.115663245 0.10461021
0.059388623 -0.09392534 -0.17415927 -0.035254475 -0.10732408 -0.0068236142 0.11645222 -0.07725406
-0.107515536 -0.016098931 0.074661456 0.04247804 0.0827911 -0.040509474 0.08165542 0.10934867
-0.04891652 -0.0012345086 0.015896099 0.13770106 0.11342209 -0.092406526 0.01462321 0.15698229
0.114529744 -0.14222741 -0.051837 -0.007437063 -0.068637446 0.09161264 -0.0433297 0.08269278
-0.08099282 0.02514273 -0.02168758 0.10349855 -0.080153465 -0.081186116 -0.106950715 0.06634769
0.15601738 -0.06691577 -0.09943757 -0.11926026 -0.050579704 -0.12284313 -0.079826534 0.10930765
0.06471191 -0.07459607 0.09384711 0.06933056 0.11433842 -0.1258437 0.026991406 -0.12752129
0.08439584 -0.009995187 -0.103238724 0.08957241 0.0050051957 0.002196814 -0.14249974 -0.0319086
-0.0066490904 0.029283537 0.0384248 0.00062885386 0.025762508 -0.09340094 -0.04345026 0.1802761
-0.05150875 -0.109860286 -0.0011401372 0.18208049 -0.093075894 -0.13492815 0.08506615 0.062714726
-0.012282714 0.010824763 -0.012583536 0.012383987 0.010650199 0.08566918 -0.06311861 -0.10250631

fc2.bias f4 [2]
00000000: bc23 713d 5089 2cbd
0.05887197 -0.04212314
